…
I0115 15:43:36.292516 21644 net.cpp:275] The NetState phase (0) differed from the phase (1) specified by a rule in layer data
I0115 15:43:36.292543 21644 net.cpp:275] The NetState phase (0) differed from the phase (1) specified by a rule in layer accuracy
I0115 15:43:36.292628 21644 net.cpp:39] Initializing net from parameters: 
name: "acmmm14"
layers {
  top: "data"
  top: "label"
  name: "data"
  type: DATA
  data_param {
    source: "50data_train_lmdb"
    batch_size: 512
    backend: LMDB
  }
  include {
    phase: TRAIN
  }
  transform_param {
    mirror: true
    crop_size: 64
    mean_file: "50data_mean.binaryproto"
  }
}
layers {
  bottom: "data"
  top: "conv1"
  name: "conv1"
  type: CONVOLUTION
  convolution_param {
    num_output: 32
    kernel_size: 5
    weight_filler {
      type: "gaussian"
      std: 0.01
    }
    bias_filler {
      type: "constant"
      value: 0
    }
  }
}
layers {
  bottom: "conv1"
  top: "pool1"
  name: "pool1"
  type: POOLING
  pooling_param {
    pool: MAX
    kernel_size: 3
    stride: 2
  }
}
layers {
  bottom: "pool1"
  top: "norm1"
  name: "norm1"
  type: LRN
  lrn_param {
    local_size: 5
    alpha: 0.0001
    beta: 0.75
  }
}
layers {
  bottom: "norm1"
  top: "conv2"
  name: "conv2"
  type: CONVOLUTION
  convolution_param {
    num_output: 32
    kernel_size: 5
    weight_filler {
      type: "gaussian"
      std: 0.01
    }
    bias_filler {
      type: "constant"
      value: 0
    }
  }
}
layers {
  bottom: "conv2"
  top: "pool2"
  name: "pool2"
  type: POOLING
  pooling_param {
    pool: MAX
    kernel_size: 3
    stride: 2
  }
}
layers {
  bottom: "pool2"
  top: "fc"
  name: "fc"
  type: INNER_PRODUCT
  inner_product_param {
    num_output: 50
    weight_filler {
      type: "gaussian"
      std: 0.01
    }
    bias_filler {
      type: "constant"
      value: 0
    }
  }
}
layers {
  bottom: "fc"
  bottom: "label"
  top: "loss"
  name: "loss"
  type: SOFTMAX_LOSS
}
state {
  phase: TRAIN
}
I0115 15:43:36.292997 21644 net.cpp:67] Creating Layer data
I0115 15:43:36.293009 21644 net.cpp:356] data -> data
I0115 15:43:36.293030 21644 net.cpp:356] data -> label
I0115 15:43:36.293046 21644 net.cpp:96] Setting up data
I0115 15:43:36.293117 21644 data_layer.cpp:68] Opening lmdb 50data_train_lmdb
I0115 15:43:36.293145 21644 data_layer.cpp:128] output data size: 512,3,64,64
I0115 15:43:36.293154 21644 base_data_layer.cpp:36] Loading mean file from50data_mean.binaryproto
I0115 15:43:36.296751 21644 net.cpp:103] Top shape: 512 3 64 64 (6291456)
I0115 15:43:36.296788 21644 net.cpp:103] Top shape: 512 1 1 1 (512)
I0115 15:43:36.296810 21644 net.cpp:67] Creating Layer conv1
I0115 15:43:36.296819 21644 net.cpp:394] conv1 <- data
I0115 15:43:36.296838 21644 net.cpp:356] conv1 -> conv1
I0115 15:43:36.296851 21644 net.cpp:96] Setting up conv1
I0115 15:43:36.312438 21644 net.cpp:103] Top shape: 512 32 60 60 (58982400)
I0115 15:43:36.312502 21644 net.cpp:67] Creating Layer pool1
I0115 15:43:36.312515 21644 net.cpp:394] pool1 <- conv1
I0115 15:43:36.312523 21644 net.cpp:356] pool1 -> pool1
I0115 15:43:36.312536 21644 net.cpp:96] Setting up pool1
I0115 15:43:36.312556 21644 net.cpp:103] Top shape: 512 32 30 30 (14745600)
I0115 15:43:36.312566 21644 net.cpp:67] Creating Layer norm1
I0115 15:43:36.312572 21644 net.cpp:394] norm1 <- pool1
I0115 15:43:36.312578 21644 net.cpp:356] norm1 -> norm1
I0115 15:43:36.312588 21644 net.cpp:96] Setting up norm1
I0115 15:43:36.312597 21644 net.cpp:103] Top shape: 512 32 30 30 (14745600)
I0115 15:43:36.312608 21644 net.cpp:67] Creating Layer conv2
I0115 15:43:36.312613 21644 net.cpp:394] conv2 <- norm1
I0115 15:43:36.312628 21644 net.cpp:356] conv2 -> conv2
I0115 15:43:36.312638 21644 net.cpp:96] Setting up conv2
I0115 15:43:36.313498 21644 net.cpp:103] Top shape: 512 32 26 26 (11075584)
I0115 15:43:36.313530 21644 net.cpp:67] Creating Layer pool2
I0115 15:43:36.313539 21644 net.cpp:394] pool2 <- conv2
I0115 15:43:36.313549 21644 net.cpp:356] pool2 -> pool2
I0115 15:43:36.313557 21644 net.cpp:96] Setting up pool2
I0115 15:43:36.313570 21644 net.cpp:103] Top shape: 512 32 13 13 (2768896)
I0115 15:43:36.313578 21644 net.cpp:67] Creating Layer fc
I0115 15:43:36.313585 21644 net.cpp:394] fc <- pool2
I0115 15:43:36.313596 21644 net.cpp:356] fc -> fc
I0115 15:43:36.313604 21644 net.cpp:96] Setting up fc
I0115 15:43:36.320793 21644 net.cpp:103] Top shape: 512 50 1 1 (25600)
I0115 15:43:36.320829 21644 net.cpp:67] Creating Layer loss
I0115 15:43:36.320837 21644 net.cpp:394] loss <- fc
I0115 15:43:36.320847 21644 net.cpp:394] loss <- label
I0115 15:43:36.320854 21644 net.cpp:356] loss -> loss
I0115 15:43:36.320866 21644 net.cpp:96] Setting up loss
I0115 15:43:36.320883 21644 net.cpp:103] Top shape: 1 1 1 1 (1)
I0115 15:43:36.320890 21644 net.cpp:109]     with loss weight 1
I0115 15:43:36.320916 21644 net.cpp:170] loss needs backward computation.
I0115 15:43:36.320924 21644 net.cpp:170] fc needs backward computation.
I0115 15:43:36.320930 21644 net.cpp:170] pool2 needs backward computation.
I0115 15:43:36.320935 21644 net.cpp:170] conv2 needs backward computation.
I0115 15:43:36.320941 21644 net.cpp:170] norm1 needs backward computation.
…
I0115 15:43:36.321290 21644 solver.cpp:151] Creating test net (#0) specified by net file: acmmm14.prototxt
I0115 15:43:36.321316 21644 net.cpp:275] The NetState phase (1) differed from the phase (0) specified by a rule in layer data
I0115 15:43:36.321388 21644 net.cpp:39] Initializing net from parameters: 
name: "acmmm14"
layers {
  top: "data"
  top: "label"
  name: "data"
  type: DATA
  data_param {
    source: "50data_test_lmdb"
    batch_size: 512
    backend: LMDB
  }
  include {
    phase: TEST
  }
  transform_param {
    mirror: false
    crop_size: 64
    mean_file: "50data_mean.binaryproto"
  }
}
layers {
  bottom: "data"
  top: "conv1"
  name: "conv1"
  type: CONVOLUTION
  convolution_param {
    num_output: 32
    kernel_size: 5
    weight_filler {
      type: "gaussian"
      std: 0.01
    }
    bias_filler {
      type: "constant"
      value: 0
    }
  }
}
layers {
  bottom: "conv1"
  top: "pool1"
  name: "pool1"
  type: POOLING
  pooling_param {
    pool: MAX
    kernel_size: 3
    stride: 2
  }
}
layers {
  bottom: "pool1"
  top: "norm1"
  name: "norm1"
  type: LRN
  lrn_param {
    local_size: 5
    alpha: 0.0001
    beta: 0.75
  }
}
layers {
  bottom: "norm1"
  top: "conv2"
  name: "conv2"
  type: CONVOLUTION
  convolution_param {
    num_output: 32
    kernel_size: 5
    weight_filler {
      type: "gaussian"
      std: 0.01
    }
    bias_filler {
      type: "constant"
      value: 0
    }
  }
}
layers {
  bottom: "conv2"
  top: "pool2"
  name: "pool2"
  type: POOLING
  pooling_param {
    pool: MAX
    kernel_size: 3
    stride: 2
  }
}
layers {
  bottom: "pool2"
  top: "fc"
  name: "fc"
  type: INNER_PRODUCT
  inner_product_param {
    num_output: 50
    weight_filler {
      type: "gaussian"
      std: 0.01
    }
    bias_filler {
      type: "constant"
      value: 0
    }
  }
}
layers {
  bottom: "fc"
  bottom: "label"
  top: "accuracy"
  name: "accuracy"
  type: ACCURACY
  include {
    phase: TEST
  }
}
layers {
  bottom: "fc"
  bottom: "label"
  top: "loss"
  name: "loss"
  type: SOFTMAX_LOSS
}
state {
  phase: TEST
}
I0115 15:43:36.321769 21644 net.cpp:67] Creating Layer data
I0115 15:43:36.321781 21644 net.cpp:356] data -> data
I0115 15:43:36.321791 21644 net.cpp:356] data -> label
I0115 15:43:36.321801 21644 net.cpp:96] Setting up data
I0115 15:43:36.321842 21644 data_layer.cpp:68] Opening lmdb 50data_test_lmdb
I0115 15:43:36.321867 21644 data_layer.cpp:128] output data size: 512,3,64,64
I0115 15:43:36.321877 21644 base_data_layer.cpp:36] Loading mean file from50data_mean.binaryproto
I0115 15:43:36.324995 21644 net.cpp:103] Top shape: 512 3 64 64 (6291456)
I0115 15:43:36.325031 21644 net.cpp:103] Top shape: 512 1 1 1 (512)
I0115 15:43:36.325044 21644 net.cpp:67] Creating Layer label_data_1_split
I0115 15:43:36.325052 21644 net.cpp:394] label_data_1_split <- label
I0115 15:43:36.325062 21644 net.cpp:356] label_data_1_split -> label_data_1_split_0
I0115 15:43:36.325075 21644 net.cpp:356] label_data_1_split -> label_data_1_split_1
I0115 15:43:36.325084 21644 net.cpp:96] Setting up label_data_1_split
I0115 15:43:36.325094 21644 net.cpp:103] Top shape: 512 1 1 1 (512)
I0115 15:43:36.325101 21644 net.cpp:103] Top shape: 512 1 1 1 (512)
I0115 15:43:36.325110 21644 net.cpp:67] Creating Layer conv1
I0115 15:43:36.325116 21644 net.cpp:394] conv1 <- data
I0115 15:43:36.325124 21644 net.cpp:356] conv1 -> conv1
I0115 15:43:36.325134 21644 net.cpp:96] Setting up conv1
I0115 15:43:36.325290 21644 net.cpp:103] Top shape: 512 32 60 60 (58982400)
I0115 15:43:36.325307 21644 net.cpp:67] Creating Layer pool1
I0115 15:43:36.325315 21644 net.cpp:394] pool1 <- conv1
I0115 15:43:36.325323 21644 net.cpp:356] pool1 -> pool1
I0115 15:43:36.325332 21644 net.cpp:96] Setting up pool1
I0115 15:43:36.325342 21644 net.cpp:103] Top shape: 512 32 30 30 (14745600)
I0115 15:43:36.325352 21644 net.cpp:67] Creating Layer norm1
I0115 15:43:36.325358 21644 net.cpp:394] norm1 <- pool1
I0115 15:43:36.325366 21644 net.cpp:356] norm1 -> norm1
I0115 15:43:36.325374 21644 net.cpp:96] Setting up norm1
I0115 15:43:36.325382 21644 net.cpp:103] Top shape: 512 32 30 30 (14745600)
I0115 15:43:36.325391 21644 net.cpp:67] Creating Layer conv2
I0115 15:43:36.325397 21644 net.cpp:394] conv2 <- norm1
I0115 15:43:36.325404 21644 net.cpp:356] conv2 -> conv2
I0115 15:43:36.325413 21644 net.cpp:96] Setting up conv2
I0115 15:43:36.326146 21644 net.cpp:103] Top shape: 512 32 26 26 (11075584)
I0115 15:43:36.326165 21644 net.cpp:67] Creating Layer pool2
I0115 15:43:36.326174 21644 net.cpp:394] pool2 <- conv2
I0115 15:43:36.326182 21644 net.cpp:356] pool2 -> pool2
I0115 15:43:36.326192 21644 net.cpp:96] Setting up pool2
I0115 15:43:36.326201 21644 net.cpp:103] Top shape: 512 32 13 13 (2768896)
I0115 15:43:36.326212 21644 net.cpp:67] Creating Layer fc
I0115 15:43:36.326220 21644 net.cpp:394] fc <- pool2
I0115 15:43:36.326227 21644 net.cpp:356] fc -> fc
I0115 15:43:36.326236 21644 net.cpp:96] Setting up fc
I0115 15:43:36.333408 21644 net.cpp:103] Top shape: 512 50 1 1 (25600)
I0115 15:43:36.333442 21644 net.cpp:67] Creating Layer fc_fc_0_split
I0115 15:43:36.333451 21644 net.cpp:394] fc_fc_0_split <- fc
I0115 15:43:36.333461 21644 net.cpp:356] fc_fc_0_split -> fc_fc_0_split_0
I0115 15:43:36.333474 21644 net.cpp:356] fc_fc_0_split -> fc_fc_0_split_1
I0115 15:43:36.333483 21644 net.cpp:96] Setting up fc_fc_0_split
I0115 15:43:36.333492 21644 net.cpp:103] Top shape: 512 50 1 1 (25600)
I0115 15:43:36.333498 21644 net.cpp:103] Top shape: 512 50 1 1 (25600)
I0115 15:43:36.333518 21644 net.cpp:67] Creating Layer accuracy
I0115 15:43:36.333534 21644 net.cpp:394] accuracy <- fc_fc_0_split_0
I0115 15:43:36.333541 21644 net.cpp:394] accuracy <- label_data_1_split_0
I0115 15:43:36.333551 21644 net.cpp:356] accuracy -> accuracy
I0115 15:43:36.333559 21644 net.cpp:96] Setting up accuracy
I0115 15:43:36.333569 21644 net.cpp:103] Top shape: 1 1 1 1 (1)
I0115 15:43:36.333577 21644 net.cpp:67] Creating Layer loss
I0115 15:43:36.333585 21644 net.cpp:394] loss <- fc_fc_0_split_1
I0115 15:43:36.333591 21644 net.cpp:394] loss <- label_data_1_split_1
I0115 15:43:36.333606 21644 net.cpp:356] loss -> loss
I0115 15:43:36.333614 21644 net.cpp:96] Setting up loss
I0115 15:43:36.333626 21644 net.cpp:103] Top shape: 1 1 1 1 (1)
I0115 15:43:36.333632 21644 net.cpp:109]     with loss weight 1
I0115 15:43:36.333644 21644 net.cpp:170] loss needs backward computation.
I0115 15:43:36.333652 21644 net.cpp:172] accuracy does not need backward computation.
I0115 15:43:36.333657 21644 net.cpp:170] fc_fc_0_split needs backward computation.
I0115 15:43:36.333663 21644 net.cpp:170] fc needs backward computation.
I0115 15:43:36.333670 21644 net.cpp:170] pool2 needs backward computation.
…
